backend/main/chat_bot/data.pth (torch, 4586 bytes, 6 tensors)

l1.weight f4 [8, 29]
000000 52 27 05 3f 3c 63 22 3d 0c ef 8e be 98 2f 8f 3d
       0.52013123 0.03964542 -0.27916753 0.069915
000010 e6 59 9a bc 64 f0 00 be f9 d3 85 3b a7 74 e9 bd
       -0.018841695 -0.12591702 0.004084107 -0.11399203
000020 7d b7 75 be 61 6b c2 3e 7d fe ff be 2d 39 a8 3e
       -0.23995776 0.3797255 -0.49998847 0.32856122
000030 93 86 66 be ef c5 88 3e c3 1b af bc d4 7a e5 3d
       -0.22512273 0.2671351 -0.021375543 0.11205068
000040 36 c3 59 3e ee 7a ca 3e 22 a3 75 be 6f 87 c4 3d
       0.21265873 0.39546913 -0.23988011 0.095961444
000050 e6 2e 46 be 51 19 42 3f d6 ad 97 3e 97 5d 5f be
       -0.19353828 0.7581988 0.29624814 -0.21813045
000060 e7 e5 67 3e 5a a2 0b 3e 77 19 21 3d 8b af 75 be
       0.22646295 0.13636151 0.039330926 -0.23992746
000070 b9 c0 79 3e 10 49 a0 bd 78 d3 73 be f0 7c dd 3e
       0.24389924 -0.078264356 -0.23811138 0.43259382
000080 68 be b2 bd 18 34 32 3e f9 7f f7 3e 4d c5 ce 3e
       -0.08727723 0.17402685 0.48339823 0.40384904
000090 90 d6 da 3e 61 ca 92 3e ba e4 22 3e 0b 32 b0 3e
       0.42741823 0.28670028 0.15907565 0.3441318
0000a0 e6 ff a6 3e c9 20 ce 3e 52 fa 3e be 52 b0 a1 bd
       0.3261711 0.40259388 -0.18650177 -0.078949586
0000b0 1a 3c db bd 10 c5 70 be c2 1c 80 3d 97 8d e5 3e
       -0.10704823 -0.23512673 0.06255485 0.44834587
0000c0 3d 2f 05 bc d1 d9 3f be d6 73 1a bf 94 d7 5c 3d
       -0.008128938 -0.18735434 -0.60333 0.05391653
0000d0 52 22 9e bc c7 2f c4 bd a1 1d 37 be b1 f8 5a 3e
       -0.019303475 -0.09579425 -0.17882396 0.2138393
0000e0 f0 94 f1 3e 69 b1 39 be de b8 14 3f 78 10 ec 3c
       0.47183943 -0.18134083 0.58094585 0.028816447
0000f0 7c 5a cb 3e df ef 0d be 64 1c a2 3e 65 fb e8 3e
       0.39717472 -0.13861035 0.31662285 0.455043
000100 70 21 d7 3e f9 97 84 3e 42 f7 19 3f e3 2a b3 be
       0.42017698 0.25897196 0.6014291 -0.34993657
000110 12 e5 e6 3e 1d 7d 2c be 36 11 d6 3e c6 76 2f 3e
       0.45096642 -0.16844602 0.41810006 0.17135152
000120 e8 6c 95 be 45 2d 94 be 12 cd fa 3e c6 4d c4 bc
       -0.2918465 -0.28940788 0.4898458 -0.023962867
000130 a9 0d ec 3e 94 a8 27 be b1 17 ae bb 49 5f 2e 3f
       0.46104172 -0.16372901 -0.005312883 0.68114144
000140 ae d8 03 3f 72 d2 83 bd 2a 9a 05 bc 4b 93 3d be
       0.515025 -0.06436624 -0.008154431 -0.18513219
000150 55 cb 92 3e 8b 4b f9 3e 35 aa 97 3e e0 17 00 3c
       0.28670755 0.48690447 0.29622045 0.007818192
000160 66 f5 a2 bd 22 6d c0 bd 3e 23 9f 3c 37 95 af bd
       -0.07956962 -0.093958154 0.019425984 -0.08573382
000170 59 a9 c8 3d 64 0e d0 bd b5 4d 8b 3c 30 51 5b bd
       0.097979255 -0.10158995 0.017004827 -0.053544223
000180 a7 64 37 3e 10 b4 f0 bd fe a8 8d 3d ed 0a 13 3e
       0.1790949 -0.11753094 0.06916998 0.14359637
000190 a8 9f 0d be 06 2b 03 3d 17 cb 0c 3e d8 ef 44 3d
       -0.13830435 0.032023452 0.13749348 0.048080295
0001a0 5e f7 2e be 00 b8 6d 39 cb e2 e7 3d 72 c3 89 bd
       -0.1708655 0.00022670627 0.11322554 -0.06726731
0001b0 8a 10 2c be d8 16 4c 3d 11 db 0f 3e 9c 99 cb 3d
       -0.16803184 0.049826473 0.14048411 0.09941408
0001c0 d3 39 2c be fb b9 d5 bd 45 70 88 bd a6 d9 1e be
       -0.16818933 -0.104358636 -0.06662039 -0.15512714
0001d0 f8 e5 56 be 13 bc 73 be 84 59 6d 3d de 9d 13 3f
       -0.20986164 -0.23802213 0.057946697 0.5766276
0001e0 5f 35 71 3e b4 6a cd bc 0c ef 16 3e 7c af cd 3d
       0.23555516 -0.025075294 0.14739627 0.100432366
0001f0 28 d9 86 3e b1 2f 8a be a6 1a db 3e 9d 2f 37 be
       0.26337552 -0.2698951 0.4279377 -0.17889257
000200 f7 c4 68 3e ea 1d 17 be 74 64 2b 3f 86 59 73 3f
       0.22731386 -0.14757505 0.66950154 0.95058477
000210 e3 80 a2 be 29 d1 ff bd 3a 42 83 3e 5c d5 30 3f
       -0.31738958 -0.12491066 0.25636464 0.6907556
000220 75 b2 a6 be 65 0e 17 bf dc f1 30 be a6 9b 1a be
       -0.32558027 -0.5900634 -0.17279762 -0.15098438
000230 9e 6c 2d 3f 5f 9c d1 bd f9 10 71 3e 1e a1 66 3e
       0.6774386 -0.102349035 0.23541631 0.22522399
000240 9d 2c a8 be 0f 2f de 3e 48 06 c4 3e cf 3d 99 be
       -0.32846537 0.43395278 0.38286042 -0.2992997
000250 c4 20 35 3f fc 61 5c be 59 30 2b bd 7b e0 4e bd
       0.7075312 -0.21521753 -0.041794155 -0.05050705
000260 b0 e3 f9 bd 6b 6f 10 bf b0 10 38 3f 4d 9b 16 bf
       -0.12201631 -0.5642001 0.71900463 -0.5883072
000270 8b ff 15 3f cb 01 cb bd be 2e f7 3e 40 6d 13 3f
       0.5859305 -0.09912451 0.4827785 0.5758858
000280 5d b2 59 3f c5 fb 4b 3e 33 8e 3a 3f 8a 92 17 bf
       0.85037786 0.19920261 0.7287323 -0.59207976
000290 3c d0 1b 3f 67 33 b6 be 54 b1 f9 3e 96 3a 11 3e
       0.60864615 -0.35586092 0.48768103 0.14182505
0002a0 50 0a 9b be 56 2a 24 3f 69 82 a5 be 68 ca 5d be
       -0.30281305 0.641271 -0.32326058 -0.21659243
0002b0 c7 d5 0d bf 73 0a ec 3e 89 1c f6 bd 47 69 ed 3e
       -0.55404323 0.46101722 -0.120171614 0.46369383
0002c0 ae aa 99 3e fe ca 90 3d 80 13 59 3e db 02 b3 3e
       0.3001303 0.07069968 0.21198845 0.34963116
0002d0 c5 19 1f 3e 7a 4a 9c 3e 83 a6 da 3e 4c 8b 41 3f
       0.15537174 0.3052557 0.42705163 0.75603175
0002e0 2c 03 b1 3e 37 57 16 3f 6c b7 07 3e 06 1d fe bd
       0.34572732 0.5872683 0.13253564 -0.124078795
0002f0 d4 cd c2 3d b5 37 8b 3e 1c 9d 8b be 2a 34 53 3f
       0.09511915 0.2719094 -0.27268302 0.8250147
000300 c1 f7 ce 3e ba d9 22 3e b4 08 29 be 4b 10 13 bf
       0.40423396 0.15903369 -0.16507226 -0.57446736
000310 7c 93 f0 3c 15 8d 1a be b5 32 5b 3e af 93 d4 bd
       0.029367201 -0.15092881 0.21406062 -0.10379731
000320 ff 12 cd 3e 1b e7 db 3e 1e d0 45 be d8 88 9c 3e
       0.40053555 0.42949757 -0.19317672 0.30573153
000330 18 f7 18 bd 6b 18 0b bd 1d 1b 39 3e ce 7f 3d be
       -0.037345022 -0.033958834 0.18076749 -0.18505785
000340 52 3e 5c be 2a 68 14 be 12 d1 1b be 1b 08 bc be
       -0.21508148 -0.1449286 -0.15216473 -0.36724934
000350 1f 67 2a bc c7 ac 8c be 67 cd 74 be 2a 9f f1 bd
       -0.010400563 -0.2747557 -0.2390648 -0.11797936
000360 8f 31 ae 3e 7e 06 fa 3d 9d 5b 1f 3f ee 24 e8 3e
       0.34022185 0.122082695 0.62249166 0.45340675
000370 9a 81 a5 bd 37 e9 bb be 19 ce ae 3e 2c 09 f5 bd
       -0.0808136 -0.36701366 0.34141615 -0.1196464
000380 af da 46 3f f3 30 bd bd 8e 52 28 be 7e 41 ba 3e
       0.77677435 -0.09237852 -0.16437742 0.36378092
000390 cb f4 aa bd f7 5d aa be 0b 06 bc be e5 20 0b 3f
       -0.08347472 -0.33274814 -0.3672336 0.5434707

l1.bias f4 [8]
000000 1f b2 75 3e b5 27 1b 3f c9 73 03 3f 58 bc 1f be
       0.23993729 0.60607463 0.5134855 -0.15599191
000010 cc 84 4f 3f 6a 4d 19 3f 90 c5 19 3f 44 05 bc 3e
       0.81062007 0.5988375 0.6006708 0.36722767

l2.weight f4 [8, 8]
000000 cc 8c 57 3f cf 9b 29 bf 41 ed 64 be de 0f 6e 3d
       0.84199214 -0.6625337 -0.2235613 0.0581206
000010 d1 bc 35 3f 7c f6 7b 3f 0b 98 81 3e fd 75 41 3f
       0.70991236 0.9842298 0.25311312 0.7557066
000020 00 95 42 bf 5a 36 2f 3f f5 e4 5f 3f f9 fa 43 be
       -0.76008606 0.6844231 0.87458736 -0.19138707
000030 64 57 06 3e 22 8a 08 bf fa 28 f4 3e ff b1 2f bf
       0.13119274 -0.53335774 0.47687513 -0.68630975
000040 2d b7 57 3f d0 09 84 bf 02 0d 69 3f fc 40 95 be
       0.8426388 -1.0315495 0.91035473 -0.29151142
000050 d2 86 6c bf 94 63 94 3e 05 f2 bf 3d de 5e e1 3e
       -0.9239322 0.28982222 0.093723334 0.4401769
000060 ae c7 4b 3f 7f 66 c2 3e 18 d1 68 3f a6 4f 4b 3e
       0.7960156 0.37968823 0.9094405 0.19854602
000070 70 e0 02 3f cb 3d b0 3e f1 8e ec be 5a 42 41 3f
       0.51123714 0.34422144 -0.46202806 0.7549187
000080 51 73 4f be 16 89 d6 be d8 4b 16 bf ca 4b a6 3e
       -0.20258833 -0.41901463 -0.5870948 0.32479697
000090 5f 8b 1a bf 46 93 97 3e 5d 53 59 3f 10 36 0e bf
       -0.60368913 0.29604548 0.8489283 -0.5555124
0000a0 e8 dd 40 be ca ff 5d 3f 3b 2b 3b 3f 82 fd 1e be
       -0.1883465 0.8671843 0.7311284 -0.15526393
0000b0 20 c8 80 be e6 6f b9 3d a0 e8 69 3f f3 66 5a bf
       -0.25152683 0.09054546 0.9137058 -0.8531334
0000c0 fe 3b 49 bf 89 76 01 3f c4 97 52 3f 5e 4e 15 3c
       -0.78607166 0.50571495 0.82262826 0.0091129225
0000d0 2e 86 81 3f 53 23 1f 3d 37 8f d7 3e 01 22 ba be
       1.0119073 0.038852047 0.42101452 -0.36354068
0000e0 1d a0 11 3e 21 74 58 3f 4a 2e e8 be be 7d 7f 3e
       0.14221235 0.845522 -0.45347816 0.2495031
0000f0 c4 e6 5d 3f bd 15 26 3f 18 70 36 3f 11 7a 28 be
       0.86680245 0.6487692 0.7126479 -0.16452815

l2.bias f4 [8]
000000 fa 3f d1 bd 4b ab 30 3f ea 65 63 3f 94 bf 0b 3d
       -0.10217281 0.6901137 0.88827384 0.03411825
000010 56 52 5d 3f af 7e 2f be 3c a6 75 bd 24 95 a8 be
       0.8645376 -0.1713817 -0.059972987 -0.32926285

l3.weight f4 [5, 8]
000000 f4 60 d4 3e 7a df 62 bf a7 32 8a bf ba 74 39 3e
       0.4148022 -0.8862225 -1.0796708 0.18110934
000010 f0 0a 78 bf c7 67 80 bf 23 b9 93 3e 79 a3 bc 3e
       -0.9689169 -1.003167 0.28852186 0.3684347
000020 d2 93 81 bf 45 69 2f 3f fc 59 87 bf b8 2f 11 be
       -1.0123236 0.68520004 -1.0574336 -0.1417836
000030 51 d4 4c bf 86 1e 35 3f 98 0e e7 3e 13 f3 5e bd
       -0.8001147 0.707497 0.45128322 -0.054431032
000040 d6 89 04 be 46 f4 3a bf 58 8e 05 bf de d4 5e bf
       -0.12943205 -0.7302898 -0.52170324 -0.8704356
000050 1d e5 19 3f 82 a7 a8 3e 5e df 14 bf e1 d3 93 3e
       0.60115224 0.32940298 -0.5815333 0.28872588
000060 e4 42 59 bf 61 22 5c 3f c1 6b 33 3f b7 a1 64 bf
       -0.8486769 0.8598996 0.70086294 -0.8930926
000070 d0 0c b1 3f 3c 34 82 be f3 30 fa be cc ae c0 bf
       1.3832035 -0.25430477 -0.4886547 -1.5053344
000080 cf 29 81 3e fd 71 6f bf 67 e1 0d 3f 22 c0 1c 3f
       0.2522721 -0.9353331 0.5542206 0.6123067
000090 d1 10 3b bf 1b d3 51 bf df 0d 4f bf 0e 12 9a bf
       -0.73072535 -0.81962746 -0.8088054 -1.203676

l3.bias f4 [5]
000000 37 7b 1c 3e 6a f9 af 3c 15 bc 0d bf cb f6 2e 3e
       0.15281378 0.021481235 -0.55365115 0.17086332
000010 ec 16 1f be
       -0.15536088
